reinforcement_snake_game_/model/model.pth (torch, 16787 bytes, 4 tensors)

linear1.weight f4 [256, 11]
-0.20761265 -0.29135633 0.053555533 -0.29071677 0.15637684 -0.06990208 0.1549249 -0.075021304
-0.15693304 -0.027319314 -0.023009777 0.23020114 0.73681074 -0.6369249 -0.01187945 -0.2605846
0.14826322 -0.36283326 0.2712698 -0.2396949 -0.33463916 0.06724639 -0.07216541 -0.52858716
0.10390707 0.18252668 -0.39083385 -0.20119579 0.27934805 0.081300676 -0.36652005 0.17117278
-0.6287323 -0.44828656 -0.11086726 0.065936685 0.0065191607 -0.5241059 -0.28193194 0.0652054
-0.17741749 -0.22119586 -0.34735495 0.09824582 0.3511799 -0.31756 -0.11920681 -0.14494377
-0.15607692 0.1381291 -0.16056404 -0.094170116 -0.008477446 -0.28794023 -0.12124335 0.1451311
-0.34155566 -0.12656464 -0.3843963 0.36765456 -0.47396857 0.3759605 0.4111513 -0.1414961
-0.7556768 -0.54882425 0.15658675 0.24782322 -0.0071602245 0.037437275 -0.1482296 0.18887578
-0.11133994 0.37131187 0.31068212 0.019526463 0.31231365 0.07571747 -0.06533545 0.16118258
-0.3619105 -0.11260728 -0.17134373 -0.050743487 0.3422035 -0.24724635 -0.24883695 -0.03720786
0.22599757 0.08973062 0.062017765 -0.24376646 -0.2682051 0.10515772 -0.2537962 0.4442436
0.4159157 0.013319924 0.5361388 0.64959335 -0.32004294 -0.21521181 -0.16306888 0.2267566
0.12655407 0.054243293 -0.07066303 0.020464918 -0.21956672 -0.17975004 0.46598983 0.59223163
0.074820496 -0.05328408 -0.21007761 -0.057361897 -0.13385049 0.3608949 0.41924587 0.23007385
0.3300705 -0.19494303 -0.44741982 0.016194517 0.39353302 0.106330015 -0.3623052 0.28362077
-0.17707498 -0.120275415 -0.33148286 0.0063781575 -0.34937012 0.1376513 -0.049898263 -0.30667856
0.32328165 -0.3644467 -0.44106013 -0.106645316 -0.42099983 0.06751336 -0.6146794 0.18313013
-0.30126718 -0.2905979 0.5387656 -0.23966214 -0.42344266 0.017249973 -0.30778986 0.6432906
-0.265249 -0.29473585 -0.38759962 0.04945941 0.09180026 0.014472622 -0.50450236 0.33420682
-0.41217443 -0.4506598 -0.030616563 0.3757886 -0.21131037 0.014503766 -0.0019985787 0.037457235
-0.11192506 -0.14750612 0.0006079638 -0.113516636 0.17035177 0.18120356 0.02784357 0.06536227
-0.2484025 -0.056561306 0.16817814 -0.29135066 -0.16951431 -0.17035332 -0.2453194 0.074860185
0.2520437 -0.08163217 -0.0473299 -0.2856019 0.046498936 0.062920175 -0.25875106 0.48412165
0.11889799 -0.31780183 -0.7409183 -0.53634906 -0.07323359 0.28859088 -0.41591355 0.12358955
-0.38730654 -0.23563617 0.25334758 0.084874906 -0.2933328 0.444335 0.122659504 -0.1502624
-0.4788824 0.09249542 -0.39033887 -0.5789173 0.60045487 -0.7362485 -0.14929347 -0.24663612
0.18407066 -0.927377 -0.5633685 -0.5369048 -0.29096934 0.1255854 -0.07217643 -0.42182985
-0.34845656 -0.23206764 -0.3542259 0.2533667 -0.019759664 -0.013407272 0.09487001 -0.4237234
0.3382135 -0.08800112 -0.27680546 0.13761123 -0.17825727 -0.5252196 -0.30893505 -0.15175122
-0.03880933 0.18394513 -0.34062538 -0.0068069845 -0.14684048 0.13507995 -0.48071605 0.41346684
-0.08862159 -0.4288027 0.64613926 -0.27758163 0.2947213 -0.08417572 -0.38901716 0.24090318
00000000: 6998 54be a82c 95be 0c5d 5b3d d4d8 94be
00000010: 4021 203e d228 8fbd a2a4 1e3e c5a4 99bd
00000020: 0eb3 20be c1cc dfbc 007f bcbc d9b9 6b3e
00000030: a19f 3c3f 830d 23bf 06a2 42bc 586b 85be
00000040: 50d2 173e 48c5 b9be e0e3 8a3e 9472 75be
00000050: d355 abbe 7ab8 893d 75cb 93bd 7d51 07bf
00000060: 3bcd d43d 46e8 3a3e 601b c8be 4506 4ebe
00000070: b506 8f3e f880 a63d 84a8 bbbe eb47 2f3e
00000080: 9af4 20bf d185 e5be 600e e3bd d009 873d
00000090: af9e d53b ce2b 06bf 6259 90be 698a 853d
000000a0: eeac 35be 2b81 62be 82d8 b1be 1b35 c93d
000000b0: dacd b33e 3997 a2be b322 f4bd 246c 14be
000000c0: a1d2 1fbe b771 0d3e e66a 24be 43dc c0bd
000000d0: fce4 0abc e76c 93be 6f4e f8bd 3f9d 143e
000000e0: 62e0 aebe 299a 01be 98cf c4be 383d bc3e
000000f0: 02ac f2be e57d c03e 6c82 d23e 5be4 10be
00000100: 0974 41bf bf7f 0cbf 4758 203e 5fc5 7d3e
00000110: 51a0 eabb d457 193d 80c9 17be a768 413e
00000120: 3206 e4bd 971c be3e ba11 9f3e f6f5 9f3c
00000130: 93e7 9f3e c311 9b3d 98ce 85bd 0c0d 253e
00000140: 554c b9be a59e e6bd bb74 2fbe 67d8 4fbd
00000150: 4c35 af3e 262e 7dbe 1dcf 7ebe 4567 18bd
00000160: e86b 673e b0c4 b73d 5706 7e3d ea9d 79be
00000170: 2e52 89be ee5c d73d 93f1 81be e673 e33e
00000180: e7f2 d43e cf3b 5a3c 6440 093f c04b 263f
00000190: abdc a3be 7c60 5cbe 87fb 26be e232 683e
000001a0: 6497 013e 372e 5e3d c7b7 90bd 0ba6 a73c
000001b0: 19d6 60be 6510 38be 3896 ee3e 7e9c 173f
000001c0: 7d3b 993d 6840 5abd 961e 57be 4ff4 6abd
000001d0: 1a10 09be 37c7 b83e 65a7 d63e 7b98 6b3e
000001e0: 00ff a83e 259f 47be 3614 e5be 5daa 843c
000001f0: 297d c93e 8dc3 d93d 1180 b9be be36 913e
00000200: 2553 35be f552 f6bd 1fb8 a9be ddff d03b
00000210: a4e0 b2be 76f4 0c3e 1f62 4cbd f904 9dbe
00000220: 2c85 a53e c298 babe a2d2 e1be dc68 dabd
00000230: 4a8d d7be 7244 8a3d a15b 1dbf 7786 3b3e
00000240: b13f 9abe 3fc9 94be 8bec 093f fe69 75be
00000250: 7acd d8be d14f 8d3c a296 9dbe b1ae 243f
00000260: b8ce 87be 9ee7 96be 7573 c6be f395 4a3d
00000270: c601 bc3d 941e 6d3c 1127 01bf 281d ab3e
00000280: 8708 d3be e2bc e6be 96cf fabc 5d67 c03e
00000290: bf61 58be 34a1 6d3c 96fa 02bb c26c 193d
000002a0: f738 e5bd d80b 17be c35f 1f3a 697b e8bd
000002b0: b270 2e3e 6d8d 393e 3318 e43c a7dc 853d
000002c0: 3a5d 7ebe d4ac 67bd e436 2c3e ea2b 95be
000002d0: 2995 2dbe 1a71 2ebe 0235 7bbe 4c50 993d
000002e0: df0b 813e c42e a7bd ffdc 41bd 6a3a 92be
000002f0: ab75 3e3d 4bdc 803d 057b 84be cbde f73e
00000300: ca80 f33d ecb6 a2be d2ac 3dbf 2c4e 09bf
00000310: 7efb 95bd 2fc2 933e 9ff2 d4be 851c fd3d
00000320: 0b4d c6be 9c4a 71be c6b6 813e e5d2 ad3d
00000330: b72f 96be e17f e33e e834 fb3d 63de 19be
00000340: 1330 f5be 3d6e bd3d 7fda c7be ed33 14bf
00000350: 69b7 193f c87a 3cbf 63e0 18be 2e8e 7cbe
00000360: 057d 3c3e 9468 6dbf eb38 10bf 9872 09bf
00000370: eff9 94be 7699 003e 3cd1 93bd 15fa d7be
00000380: e668 b2be 24a3 6dbe 195d b5be 48b9 813e
00000390: 05df a1bc 2daa 5bbc 354b c23d 46f2 d8be
000003a0: 522a ad3e ee39 b4bd 72b9 8dbe f5e9 0c3e
000003b0: 1389 36be cb74 06bf bc2c 9ebe ac64 1bbe
000003c0: 88f6 1ebd 1d5c 3c3e 7366 aebe 200d dfbb
000003d0: 5a5d 16be 6652 0a3e 6a20 f6be edb1 d33e
000003e0: 3c7f b5bd 078c dbbe 6269 253f 2e1f 8ebe
000003f0: b6e5 963e 5264 acbd 422d c7be 53af 763e

linear1.bias f4 [256]
-0.27656525 -0.0595577 0.07749851 -0.0642816 -0.29218164 -0.121879 -0.3977049 -0.4596647
-0.3461224 0.074574955 -0.30423117 0.22838274 0.103341244 -0.24644141 0.016317643 -0.48644674
-0.29313454 -0.11209911 -0.3896605 0.46055725 -0.27322206 -0.3631519 -0.21859802 0.24243334
0.11931553 -0.24084938 0.1636371 0.36558706 -0.21246596 -0.07490654 -0.03316055 0.09761051
0.41331574 -0.087197624 -0.29291174 -0.10216725 -0.09946774 -0.08541858 -0.12741132 -0.24884033
-0.41132194 0.007033808 0.09900034 -0.2537559 0.15228541 1.0761616 -0.4345527 -0.13427365
-0.07799401 -0.121116206 -0.06967361 -0.22055198 -0.12914324 -0.23067015 0.2066413 -0.17794514
0.3940628 -0.19655322 -0.060667396 0.42681772 -0.2787402 -0.2605885 -0.5164797 -0.16536106
-0.563552 0.30620086 -0.3601565 0.11180477 -0.17547955 -0.35706615 0.029399367 -0.46537802
-0.15020506 -0.45314625 -0.19086076 -0.16132365 0.07103378 -0.39029065 -0.059457775 0.6325761
0.120560065 -0.17283775 -0.23926972 -0.16890533 -0.22629005 -0.13636377 -0.2114259 -0.027019136
-0.26446155 -0.043358408 -0.31203586 -0.19590285 -0.17214464 -0.31063628 0.51481265 -0.39248878
-0.39839122 -0.42538297 -0.3917353 -0.48143443 0.3093092 -0.08070837 -0.10908835 -0.25979185
0.029100051 -0.27673104 -0.16229697 -0.3853013 -0.4769906 0.58132166 0.41771632 -0.026422681
-0.25481474 -0.3719896 -0.09309419 -0.44227946 -0.2658357 -0.11716837 -0.36714384 -0.30188423
0.08331741 0.4554011 -0.15059273 0.021256376 0.1543554 -0.12769456 -0.4364206 -0.42355472
-0.42970544 -0.18781652 -0.21654348 -0.40031266 -0.48557213 -0.13416696 -0.16441794 -0.06848799
-0.2240171 0.1314397 -0.048699208 -0.009081056 -0.05990225 -0.50139904 0.076137096 -0.18704785
-0.3738476 -0.4606505 -0.38535693 -0.26691276 0.024530448 0.32914236 -0.34174544 -0.24018684
0.13610032 0.7555843 -0.21312195 0.03049432 -0.44349998 0.28894055 -0.23270611 0.023076149
-0.11118984 0.42545137 -0.3709796 -0.07530364 -0.19693583 0.26499948 0.31047145 -0.30881706
-0.3388918 -0.16741869 -0.13408837 -0.0137352785 -0.035805926 -0.02585628 0.07017473 0.25736874
-0.2443244 0.082924895 -0.13578534 -0.13136454 -0.036962997 -0.15874289 -0.09222654 0.38479248
-0.5540733 0.19461548 0.35815045 0.094454445 0.3091789 -0.108977124 -0.31901744 0.46263966
0.103701085 -0.4638493 -0.29153907 0.09787328 -0.19768718 -0.0835496 0.28998667 -0.49412555
-0.35848847 -0.43711486 0.16968012 -0.148266 -0.21515062 0.07458078 0.3717687 -0.23513895
0.24186982 -0.21669178 -0.30077168 0.4605822 -0.09949837 -0.13205363 -0.17605138 -0.24494624
-0.421984 0.09377206 0.37990654 -0.24521363 -0.3221632 0.010333687 -0.21872814 -0.37120062
-0.23418753 -0.06568945 -0.1198598 0.018221404 -0.2332111 0.08402175 -0.06855963 -0.342295
0.25074697 -0.14295727 -0.2599018 -0.22329545 -0.36803213 0.405625 -0.32099319 -0.3380238
-0.22521132 -0.10601104 0.014782002 0.09169722 0.19409794 -0.14971322 -0.06271501 -0.23135903
0.30091915 0.013435984 -0.35340315 0.05952283 -0.10533606 0.0416715 -0.25760186 0.33081087
00000000: f699 8dbe c6f2 73bd 8ab7 9e3d 12a6 83bd
00000010: d598 95be b29b f9bd fa9f cbbe 2c59 ebbe
00000020: f536 b1be c1ba 983d 30c4 9bbe 2add 693e
00000030: 93a4 d33d 235b 7cbe 94ac 853c 8c0f f9be
00000040: bb15 96be 3894 e5bd 9581 c7be 29ce eb3e
00000050: c3e3 8bbe 0cef b9be 29d8 5fbe 7240 783e
00000060: b35b f43d 38a1 76be 7c90 273e 3a2e bb3e
00000070: ad90 59be 9a68 99bd 5bd3 07bd 05e8 c73d
00000080: 1f9e d33e ab94 b2bd 87f8 95be 103d d1bd
00000090: beb5 cbbd f0ef aebd 1d78 02be 00d0 7ebe
000000a0: ca98 d2be dc7b e63b b1c0 ca3d 4bec 81be
000000b0: b5f0 1b3e aabf 893f b17d debe 087f 09be
000000c0: 53bb 9fbd c60b f8bd 0ab1 8ebd 61d8 61be
000000d0: 203e 04be cc34 6cbe c799 533e 4037 36be
000000e0: 99c2 c93e 3f45 49be 607e 78bd da87 da3e
000000f0: 09b7 8ebe db6b 85be 0338 04bf 6954 29be
00000100: f244 10bf 5cc6 9c3e 6f66 b8be e6f9 e43d
00000110: e9b0 33be 60d1 b6be f1d6 f03c 0746 eebe
00000120: 5bcf 19be c902 e8be 0171 43be 0732 25be
00000130: 297a 913d 2dd4 c7be ff89 73bd 82f0 213f
00000140: 32e8 f63d 61fc 30be 1f03 75be 85f5 2cbe
00000150: 94b8 67be f2a2 0bbe 0880 58be 3c57 ddbc
00000160: 8167 87be 9698 31bd 2ac3 9fbe c29a 48be
00000170: af46 30be b80b 9fbe c3ca 033f 4af4 c8be
00000180: eff9 cbbe cccb d9be 8791 c8be 937e f6be
00000190: c75d 9e3e 6e4a a5bd b669 dfbd 7003 85be
000001a0: 3b63 ee3c b1af 8dbe 2d31 26be 3646 c5be
000001b0: 1d38 f4be 7fd1 143f eade d53e 6174 d8bc
000001c0: 1477 82be 6c75 bebe 2ba8 bebd 7472 e2be
000001d0: 9e1b 88be f8f5 efbd 47fa bbbe 9290 9abe
000001e0: 51a2 aa3d 552a e93e fb34 1abe da21 ae3c
000001f0: 580f 1e3e 5dc2 02be 8572 dfbe 2adc d8be
00000200: 5a02 dcbe f952 40be 93bd 5dbe c8f5 ccbe
00000210: e99c f8be 1063 09be 2d5d 28be 6e43 8cbd
00000220: bd64 65be 2198 063e d278 47bd b6c8 14bc
00000230: 105c 75bd b05b 00bf c4ed 9b3d 7989 3fbe
00000240: f468 bfbe 62da ebbe 814d c5be caa8 88be
00000250: 14f4 c83c 5985 a83e 42f9 aebe 8af3 75be
00000260: e25d 0b3e f96d 413f a43c 5abe 39cf f93c
00000270: 6e12 e3be 04f0 933e 834a 6ebe 310a bd3c
00000280: 80b7 e3bd c3d4 d93e 0af1 bdbe cb38 9abd
00000290: 8ca9 49be 03ae 873e 1df6 9e3e 451d 9ebe
000002a0: 3a83 adbe ce6f 2bbe 764e 09be ef09 61bc
000002b0: 3ca9 12bd 8dd0 d3bc c5b7 8f3d d6c5 833e
000002c0: 2d30 7abe 87d4 a93d 500b 0bbe 6d84 06be
000002d0: 8366 17bd 7f8d 22be 45e1 bcbd 8503 c53e
000002e0: bfd7 0dbf 4849 473e 7f5f b73e 5571 c13d
000002f0: b24c 9e3e 662f dfbd 4156 a3be 1bdf ec3e
00000300: 3c61 d43d a87d edbe 9c44 95be c971 c83d
00000310: 826e 4abe 0d1c abbd 2279 943e 06fe fcbe
00000320: cd8b b7be 85cd dfbe a0c0 2d3e 0bd3 17be
00000330: 7250 5cbe cfbd 983d 7858 be3e 44c8 70be
00000340: b9ac 773e 73e4 5dbe bffe 99be 6ed1 eb3e
00000350: cdc5 cbbd 1139 07be d046 34be 30d3 7abe
00000360: 490e d8be 910b c03d 1c83 c23e 4819 7bbe
00000370: 93f2 a4be a04e 293c 45fa 5fbe 020e bebe
00000380: dbce 6fbe 3188 86bd 0e79 f5bd 0e45 953c
00000390: e4ce 6ebe 9813 ac3d fe68 8cbd 4a41 afbe
000003a0: e861 803e 6463 12be d911 85be 90a7 64be
000003b0: b56e bcbe 14ae cf3e 3859 a4be 7511 adbe
000003c0: cc9d 66be 511c d9bd 3630 723c c1cb bb3d
000003d0: 9cc1 463e 6c4e 19be ba70 80bd 62e9 6cbe
000003e0: 1312 9a3e 9a22 5c3c 42f1 b4be 36ce 733d
000003f0: 6fba d7bd bcaf 2a3d 64e4 83be 0b60 a93e

linear2.weight f4 [3, 256]
-0.02939117 0.08755765 0.0059938477 0.069973834 -0.042778034 -0.69725496 -0.07115233 -0.021206832
-0.13878405 -0.0054284013 -0.077972054 0.09976981 0.037310712 -0.44284984 0.2028114 -0.023503115
0.0027089105 -0.28695536 -0.0013294315 0.38437027 -0.001337278 -0.00042422724 -0.2913117 0.25262967
0.060877655 -0.48055747 0.063641205 0.48127368 -0.09048545 -0.02502776 0.06578576 -0.25851712
0.4672118 -0.33777806 -0.009058915 0.28027704 0.013862017 -0.26101694 -0.03126929 -0.010766482
-0.17361832 0.35355037 0.053603325 -0.020603238 -0.138456 0.3457394 0.034657493 -0.117716625
-0.015115302 0.5233121 0.52478 -0.003724713 -0.1594288 -0.641174 0.119456895 -0.00080176664
0.35060138 0.07541289 -0.053092547 0.4117911 -0.09691542 -0.27371624 -0.08237995 -0.2134174
-0.084682874 0.2588725 -0.26163763 -0.00041979205 -0.08717941 0.1421188 -0.30624804 -0.03180166
0.004240835 -0.36343616 -0.0084901815 0.009860009 -0.063353375 -0.020786107 0.040200543 0.18915357
0.25637203 0.003982711 -0.06500899 -0.068515785 -0.031071816 -0.112428784 0.1554317 -0.048248604
-0.025022954 -0.053906623 0.057626422 0.024672728 -0.022182373 -0.2509898 0.48286718 -0.29480594
-0.14988516 0.0185492 -0.18331233 -0.07213563 0.20864093 -0.07027296 0.12140239 0.056639515
0.649664 -0.062578104 -0.01731509 -0.010465479 -0.104863234 0.23717918 0.55282855 0.18766227
-0.13981093 -0.20108615 -0.20063435 -0.12593867 -0.050199796 -0.029970014 0.089208655 -0.00034978194
0.027618797 0.5373466 -0.043875646 0.28260285 0.4346252 -0.24831066 -0.0150221065 -0.0064028404
-0.07647257 -0.24129038 -0.31008843 -0.16361168 -0.013422842 -0.029103776 -0.14704035 -0.73700494
-0.10415456 0.24539495 -0.0095606325 0.0037546167 -0.0039482303 0.00041071256 -0.568861 -0.07230239
-0.22192287 0.060333893 0.029331202 -0.010070912 0.03419677 0.08041301 -0.006416527 -0.30145538
0.41190267 0.28040972 -0.15896179 -0.32279393 0.083137445 0.23994061 -0.068147294 0.18002152
-0.6334113 0.34215796 -0.054353572 0.06662827 -0.008812181 0.26070547 0.41034546 -0.014027083
-0.20450884 -0.019916829 -0.048975833 0.04035017 -0.5307269 0.21470508 0.5050299 0.20129943
-0.16354899 0.16036314 0.07454148 -0.06978581 0.063799195 -0.09972044 0.019866852 0.31831777
-0.31045613 0.26207346 0.41463482 0.27850652 0.16016996 -0.050987385 -0.31503916 0.1811759
0.1937423 0.007695229 -0.03923001 0.20742127 -0.0041007935 -0.24724403 0.23242992 -0.038188174
0.01925752 -0.16311398 0.110258736 -0.0015534686 -0.18067068 0.03961619 0.31359088 -0.016054766
0.57278836 -0.029521173 -0.052521136 0.26774678 -0.118099324 -0.5065696 -0.57174087 0.013870283
-0.03631163 -0.5246693 0.25899932 -0.461435 -0.054153755 0.5445973 -0.40746704 -0.39887288
-0.35070977 -0.1286433 -0.050258644 0.20332034 -0.05539585 0.54467666 0.032809284 -0.09571664
0.24168848 -0.08055594 -0.01681475 -0.0109713515 -0.26679993 0.31793606 -0.00088142976 -0.077832006
-0.022076212 -0.08721292 -0.36884573 0.25302798 0.36630124 -0.021266744 -0.021794345 -0.05230619
0.34102935 -0.15635885 -0.0069107176 0.015181213 -0.26873183 -0.013427345 -0.08830731 0.04038004
00000000: c0c5 f0bc 6d51 b33d 0a68 c43b 714e 8f3d
00000010: 0538 2fbd 4d7f 32bf 50b8 91bd f3b9 adbc
00000020: 681d 0ebe bbe0 b1bb d0af 9fbd 1d54 cc3d
00000030: 1ed3 183d 37bd e2be cbad 4f3e 9b89 c0bc
00000040: fa87 313b d0eb 92be 5240 aeba 2ecc c43e
00000050: 9b47 afba d16a deb9 cf26 95be ad58 813e
00000060: d95a 793d a10b f6be 5256 823d 8169 f63e
00000070: 7050 b9bd 0407 cdbc afba 863d 5b5c 84be
00000080: 6336 ef3e 3ff1 acbe d86b 14bc 7980 8f3e
00000090: 831d 633c 03a4 85be 3a14 00bd e665 30bc
000000a0: 00c9 31be 8e04 b53e 298f 5b3d 1fc8 a8bc
000000b0: 69c7 0dbe c104 b13e 04f5 0d3d 6a15 f1bd
000000c0: 2ca6 77bc c8f7 053f fb57 063f 511a 74bb
000000d0: 4e41 23be fb23 24bf d1a5 f43d a62d 52ba
000000e0: 0682 b33e 1372 9a3d 9277 59bd 48d6 d23e
000000f0: 977b c6bd 8924 8cbe d2b6 a8bd 178a 5abe
00000100: 376e adbd f08a 843e 5ef5 85be 8917 dcb9
00000110: 1e8b b2bd 9787 113e 8bcc 9cbe 7542 02bd
00000120: b4f6 8a3b 4e14 babe 671a 0bbc e08b 213c
00000130: 6abf 81bd a047 aabc 53a9 243d 79b1 413e
00000140: 3243 833e 6781 823b 6f23 85bd 0152 8cbd
00000150: 528a febc 1041 e6bd 7d29 1f3e 54a0 45bd
00000160: f0fc ccbc 31cd 5cbd af09 6c3d 761e ca3c
00000170: cfb7 b5bc bc81 80be 5e3a f73e cef0 96be
00000180: 7f7b 19be 7ef4 973c 3ab6 3bbe d8bb 93bd
00000190: f8a5 553e 45eb 8fbd d1a1 f83d d6fe 673d
000001a0: 6150 263f f328 80bd 60d8 8dbc 6777 2bbc
000001b0: 89c2 d6bd 19df 723e 2c86 0d3f 8a2a 403e
000001c0: 992a 0fbe 87e9 4dbe 1773 4dbe 11f6 00be
000001d0: 4d9e 4dbd ad83 f5bc 07b3 b63d f062 b7b9
000001e0: d140 e23c 8c8f 093f f3b6 33bd 52b1 903e
000001f0: 3287 de3e 2645 7ebe 481f 76bc ebce d1bb
00000200: a79d 9cbd d314 77be e9c3 9ebe d289 27be
00000210: 7beb 5bbc 0b6b eebc bf91 16be 5bac 3cbf
00000220: fc4e d5bd d048 7b3e 33a4 1cbc 0410 763b
00000230: 2860 81bb e854 d739 e0a0 11bf 4713 94bd
00000240: c03f 63be ac20 773d fd47 f03c 7700 25bc
00000250: ea11 0c3d 94af a43d bb41 d2bb 5c58 9abe
00000260: e8e4 d23e dd91 8f3e e1c6 22be 3f45 a5be
00000270: f743 aa3d feb2 753e cf90 8bbd 9057 383e
00000280: 3e27 22bf 542f af3e daa1 5ebd 6774 883d
00000290: f760 10bc 307b 853e cd18 d23e dad1 65bc
000002a0: c46a 51be 9e28 a3bc e29a 48bd 3846 253d
000002b0: b8dd 07bf a6db 5b3e a449 013f 7021 4e3e
000002c0: 6379 27be 3c36 243e 34a9 983d ddeb 8ebd
000002d0: 27a9 823d 3b3a ccbd cfbf a23c 8cfa a23e
000002e0: 1bf4 9ebe 7e2e 863e 044b d43e 6898 8e3e
000002f0: 9803 243e 26d8 50bd d04c a1be 2d86 393e
00000300: 6264 463e 4228 fc3b a6af 20bd 3e66 543e
00000310: f35f 86bb 8a2d 7dbe 1c02 6e3e 346b 1cbd
00000320: f2c1 9d3c 5a07 27be 55cf e13d c29d cbba
00000330: bc01 39be 9644 223d fc8e a03e 4985 83bc
00000340: 42a2 123f 63d6 f1bc 6720 57bd 1b16 893e
00000350: 0fde f1bd 8cae 01bf 9c5d 12bf 2f40 633c
00000360: 81bb 14bd ba50 06bf 8f9b 843e 3541 ecbe
00000370: 54d0 5dbd bb6a 0b3f 859f d0be 1139 ccbe
00000380: 3b90 b3be 12bb 03be 02dc 4dbd 3533 503e
00000390: c2e6 62bd ee6f 0b3f 0763 063d 1607 c4bd
000003a0: 2f7d 773e 83fa a4bd 16bf 89bc 2fc1 33bc
000003b0: 009a 88be 84c8 a23e c00f 67ba 6366 9fbd
000003c0: 2cd9 b4bc b09c b2bd 59d9 bcbe e28c 813e
000003d0: d68b bb3e 9837 aebc 0e8a b2bc 043f 56bd
000003e0: 669b ae3e 891c 20be 4d73 e2bb 9fba 783c
000003f0: 3897 89be 5efe 5bbc 77da b4bd 8a65 253d

linear2.bias f4 [3]
0.44316196 0.041819006 0.036461014
00000000: 20e6 e23e 684a 2b3d 2558 153d
